…
 'log_dir': './tensorboard',
 'low_shot': 1,
 'low_way': 15,
 'lr_base': 1e-05,
 'lr_new': 0.1,
 'lrg': 0.1,
 'milestones': [30, 70, 150, 300],
 'min_lr': 1e-08,
 'model_dir': None,
 'momentum': 0.9,
 'new_mode': 'ft_cos',
 'not_data_init': False,
 'num_workers': 32,
 'project': 'base',
 'schedule': 'Milestone',
 'seed': 0,
 'set_no_val': False,
 'start_session': 0,
 'step': 40,
 'temperature': 16,
 'test_batch_size': 100,
 'train_episode': 50,
 'warmup_rate': 0.5}
use gpu: [0]
Model = DataParallel(
  (module): MYNET(
    (backbone): VisionTransformer(
      (patch_embed): PatchEmbed(
        (proj): Conv2d(3, 768, kernel_size=(16, 16), stride=(16, 16))
      )
      (pos_drop): Dropout(p=0, inplace=False)
      (blocks): ModuleList(
        (0-11): 12 x Block(
          (norm1): LayerNorm((768,), eps=1e-06, elementwise_affine=True)
          (attn): Attention(
            (qkv): Linear(in_features=768, out_features=2304, bias=True)
            (attn_drop): Dropout(p=0, inplace=False)
            (proj): Linear(in_features=768, out_features=768, bias=True)
            (proj_drop): Dropout(p=0, inplace=False)
          )
          (drop_path): Identity()
          (norm2): LayerNorm((768,), eps=1e-06, elementwise_affine=True)
          (mlp): Mlp(
            (fc1): Linear(in_features=768, out_features=3072, bias=True)
            (act): GELU(approximate='none')
            (fc2): Linear(in_features=3072, out_features=768, bias=True)
            (drop): Dropout(p=0, inplace=False)
          )
          (tanh): Tanh()
        )
      )
      (norm): LayerNorm((768,), eps=1e-06, elementwise_affine=True)
      (tanh): Tanh()
      (head): Linear(in_features=768, out_features=1000, bias=True)
    )
    (avgpool): AdaptiveAvgPool2d(output_size=(1, 1))
    (activation): Tanh()
    (ln): LayerNorm((1000,), eps=1e-05, elementwise_affine=True)
    (fc): Linear(in_features=1000, out_features=100, bias=False)
  )
)
random init params
Model = DataParallel(
  (module): MYNET(
    (backbone): VisionTransformer(
      (patch_embed): PatchEmbed(
        (proj): Conv2d(3, 768, kernel_size=(16, 16), stride=(16, 16))
      )
      (pos_drop): Dropout(p=0, inplace=False)
      (blocks): ModuleList(
        (0-11): 12 x Block(
          (norm1): LayerNorm((768,), eps=1e-06, elementwise_affine=True)
          (attn): Attention(
            (qkv): Linear(in_features=768, out_features=2304, bias=True)
            (attn_drop): Dropout(p=0, inplace=False)
            (proj): Linear(in_features=768, out_features=768, bias=True)
            (proj_drop): Dropout(p=0, inplace=False)
          )
          (drop_path): Identity()
          (norm2): LayerNorm((768,), eps=1e-06, elementwise_affine=True)
          (mlp): Mlp(
            (fc1): Linear(in_features=768, out_features=3072, bias=True)
            (act): GELU(approximate='none')
            (fc2): Linear(in_features=3072, out_features=768, bias=True)
            (drop): Dropout(p=0, inplace=False)
          )
          (tanh): Tanh()
        )
      )
      (norm): LayerNorm((768,), eps=1e-06, elementwise_affine=True)
      (tanh): Tanh()
      (head): Linear(in_features=768, out_features=1000, bias=True)
    )
    (avgpool): AdaptiveAvgPool2d(output_size=(1, 1))
    (activation): Tanh()
    (ln): LayerNorm((1000,), eps=1e-05, elementwise_affine=True)
    (fc): Linear(in_features=1000, out_features=100, bias=False)
  )
)
random init params
FLOPs(million):  17582.845224
parameters:  | name                           | #elements or shape   |
|:-------------------------------|:---------------------|
| model                          | 86.7M                |
|  module                        |  86.7M               |
|   module.backbone              |   86.6M              |
…
